I. Dataset description:
	Total number of images: 90380 images.
	Training set size: 131 fruits with 67692 images.
	Test set size: 131 fruits with 22688 images.
	Number of classes: 131 (fruits and vegetables).
	Image size: 100x100 pixels.
	
Built CNN from scatch - structure:
Model: "sequential_10"
_________________________________________________________________
Layer (type)                 Output Shape              Param #   
=================================================================
conv2d_34 (Conv2D)           (None, 100, 100, 16)      208       
_________________________________________________________________
activation_20 (Activation)   (None, 100, 100, 16)      0         
_________________________________________________________________
max_pooling2d_34 (MaxPooling (None, 50, 50, 16)        0         
_________________________________________________________________
conv2d_35 (Conv2D)           (None, 50, 50, 32)        2080      
_________________________________________________________________
max_pooling2d_35 (MaxPooling (None, 25, 25, 32)        0         
_________________________________________________________________
conv2d_36 (Conv2D)           (None, 25, 25, 64)        8256      
_________________________________________________________________
max_pooling2d_36 (MaxPooling (None, 12, 12, 64)        0         
_________________________________________________________________
conv2d_37 (Conv2D)           (None, 12, 12, 128)       32896     
_________________________________________________________________
max_pooling2d_37 (MaxPooling (None, 6, 6, 128)         0         
_________________________________________________________________
dropout_20 (Dropout)         (None, 6, 6, 128)         0         
_________________________________________________________________
flatten_10 (Flatten)         (None, 4608)              0         
_________________________________________________________________
dense_20 (Dense)             (None, 150)               691350    
_________________________________________________________________
activation_21 (Activation)   (None, 150)               0         
_________________________________________________________________
dropout_21 (Dropout)         (None, 150)               0         
_________________________________________________________________
dense_21 (Dense)             (None, 131)               19781     
=================================================================
Total params: 754,571
Trainable params: 754,571
Non-trainable params: 0



Using Transfer learning - VGG16 - structure:
Model: "sequential_1"
_________________________________________________________________
Layer (type)                 Output Shape              Param #   
=================================================================
vgg16 (Functional)           (None, 3, 3, 512)         14714688  
_________________________________________________________________
conv2d_1 (Conv2D)            (None, 3, 3, 1024)        4719616   
_________________________________________________________________
activation_2 (Activation)    (None, 3, 3, 1024)        0         
_________________________________________________________________
max_pooling2d_1 (MaxPooling2 (None, 1, 1, 1024)        0         
_________________________________________________________________
dropout_2 (Dropout)          (None, 1, 1, 1024)        0         
_________________________________________________________________
flatten_1 (Flatten)          (None, 1024)              0         
_________________________________________________________________
dense_2 (Dense)              (None, 150)               153750    
_________________________________________________________________
activation_3 (Activation)    (None, 150)               0         
_________________________________________________________________
dropout_3 (Dropout)          (None, 150)               0         
_________________________________________________________________
dense_3 (Dense)              (None, 131)               19781     
=================================================================
Total params: 19,607,835
Trainable params: 4,893,147
Non-trainable params: 14,714,688





II. Training and Testing
	1. Built CNN from scatch
		a. train:val = 7:3, Adam - learning rate = default = 0.001, batch_size = 128, epochs = 20
			loss: 0.0477 
			accuracy: 0.9835 
			val_loss: 3.3326e-04 
			val_accuracy: 0.9999 
			**Training time: 141s
…
